第四周 中文分词相关/上午-中文分词/rnn分词/model.pth (torch, 988307 bytes, 7 tensors)

embedding.weight f4 [4622, 50]
0	0x00000000	0.0
1	0x00000000	0.0
2	0x00000000	0.0
3	0x00000000	0.0
4	0x00000000	0.0
5	0x00000000	0.0
6	0x00000000	0.0
7	0x00000000	0.0
8	0x00000000	0.0
9	0x00000000	0.0
10	0x00000000	0.0
11	0x00000000	0.0
12	0x00000000	0.0
13	0x00000000	0.0
14	0x00000000	0.0
15	0x00000000	0.0
16	0x00000000	0.0
17	0x00000000	0.0
18	0x00000000	0.0
19	0x00000000	0.0
20	0x00000000	0.0
21	0x00000000	0.0
22	0x00000000	0.0
23	0x00000000	0.0
24	0x00000000	0.0
25	0x00000000	0.0
26	0x00000000	0.0
27	0x00000000	0.0
28	0x00000000	0.0
29	0x00000000	0.0
30	0x00000000	0.0
31	0x00000000	0.0
32	0x00000000	0.0
33	0x00000000	0.0
34	0x00000000	0.0
35	0x00000000	0.0
36	0x00000000	0.0
37	0x00000000	0.0
38	0x00000000	0.0
39	0x00000000	0.0
40	0x00000000	0.0
41	0x00000000	0.0
42	0x00000000	0.0
43	0x00000000	0.0
44	0x00000000	0.0
45	0x00000000	0.0
46	0x00000000	0.0
47	0x00000000	0.0
48	0x00000000	0.0
49	0x00000000	0.0
50	0x3f0cc44e	0.5498704
51	0xbe4aca09	-0.19803633
52	0x3ea9976e	0.33123344
53	0xbf325493	-0.696603
54	0xbfcab9a1	-1.58379
55	0xbeccbb5f	-0.39986703
56	0xbfc580e0	-1.5429955
57	0x3f3d4bc3	0.7394373
58	0xbe85956f	-0.2609057
59	0x3f8f1a6e	1.1179941
60	0x3f6b4158	0.9189658
61	0x3e31454c	0.17311591
62	0xbf9aee30	-1.2103939
63	0x3f7396f8	0.95152235
64	0xbf81e2e3	-1.0147365
65	0x3c2f062e	0.010682626
66	0xbfee7fdb	-1.8632768
67	0x3fb24bb3	1.3929352
68	0x3f510890	0.8165369
69	0x3e10e403	0.1414948
70	0xbfba2690	-1.4543018
71	0xbef1bb9c	-0.47213447
72	0x3e924752	0.28570038
73	0x3dc0ae09	0.094081946
74	0x3e95d36a	0.2926286
75	0x3e379aac	0.17930096
76	0xbfaf72e5	-1.3706938
77	0x3eef0de5	0.46690288
78	0xbe88ff22	-0.2675715
79	0xbfb1f037	-1.3901433
80	0xbeabfcd6	-0.33591336
81	0x3f1332f3	0.5749962
82	0x3e6015b2	0.21883276
83	0xbecd6d07	-0.40122244
84	0x3fd50b77	1.6644124
85	0x3f33f5a0	0.7029667
86	0x3ef1ac82	0.47201926
87	0x3fdd0033	1.7265686
88	0xbef93451	-0.48672727
89	0x400bf0f7	2.1865823
90	0x3dcb71a8	0.099337876
91	0xbeed46f5	-0.46343198
92	0x3e2381a5	0.15967424
93	0xbf56f576	-0.83968294
94	0xbe7baba8	-0.245772
95	0x3ddb69c3	0.10713532
96	0x3dbf84d5	0.093515076
97	0x3fa2586f	1.2683238
98	0xbf9439a6	-1.1580093
99	0xc00c6761	-2.1938097
100	0xbf854160	-1.0410576
101	0x3c6314a8	0.013859905
102	0x3ee0f799	0.43938902
103	0x3f90e090	1.1318531
104	0xbeb64260	-0.35597515
105	0x3f714f9f	0.9426212
106	0xbf3e337c	-0.7429731
107	0x3f11d6ab	0.5696818
108	0xbef0471f	-0.4692926
109	0xbfc5b97c	-1.544723
110	0xbf403068	-0.7507386
111	0x3fcfe93f	1.6243056
112	0x3e7165f3	0.23574047
113	0xbe090afc	-0.13383096
114	0xbdd4810d	-0.10376177
115	0x3dc06b93	0.09395518
116	0x3effe47c	0.49979007
117	0x3ee2ad8f	0.4427304
118	0x3e1c5e9f	0.1527047
119	0xbeb4143c	-0.35171688
120	0xbf9cfcbe	-1.2264631
121	0x3f287993	0.6581051
122	0xbfe565d7	-1.7921704
123	0xbfa33acf	-1.2752322
124	0x3de047dc	0.10951206
125	0xbf92d513	-1.1471275
126	0xbf5d9cac	-0.8656719
127	0xbf941afe	-1.1570737
128	0x3f8f09b7	1.117484
129	0xc00e9368	-2.227747
130	0xbf3a37bd	-0.727413
131	0x3f25cc42	0.647648
132	0xbf6541b1	-0.8955336
133	0xbff36c1f	-1.9017371
134	0x3f275a05	0.65371734
135	0x3f54c7c5	0.83117324
136	0xbe3e2471	-0.18568589
137	0xbf615fb4	-0.88036656
138	0x4014fc1c	2.3278875
139	0x3f549b21	0.8304921
140	0xbeeb133e	-0.45913118
141	0xbda855dd	-0.08219502
142	0x3e5619b9	0.2090825
143	0xbf5fe7d1	-0.874631
144	0x3e74d98d	0.23911114
145	0x40439720	3.056099
146	0xbfc59752	-1.5436804
147	0xbe0c8559	-0.13722743
148	0x40034c84	2.0515451
149	0xbf71c65b	-0.9444329
150	0x3edc146f	0.4298434
151	0xbf5459b6	-0.8294939
152	0xbfbbd9b7	-1.4675816
153	0x3ea950ac	0.3306936
154	0xbfe54b49	-1.79136
155	0xbfd9dba0	-1.7020149
156	0x3dcc9c26	0.099907205
157	0x3ed09d58	0.40745044
158	0x3f2ea31a	0.68217623
159	0xbe9bb951	-0.30414823
160	0x3f61803c	0.88086295
161	0x3eda1dd6	0.42600888
162	0xbf617aab	-0.880778
163	0xbf8fcb31	-1.1233884
164	0x3ea0039c	0.31252754
165	0x3ecb367f	0.39690015
166	0x3d5359bf	0.05159926
167	0xbf78a126	-0.97120893
168	0x3fb98e4d	1.4496552
169	0x3f5adfe9	0.8549791
170	0xbf28b2ba	-0.65897715
171	0x3f377c7a	0.7167431
172	0x3e48ca5f	0.19608448
173	0xbf26b372	-0.6511756
174	0xbfb2f737	-1.3981694
175	0x3fa97aa7	1.3240556
176	0xbf229db8	-0.6352191
177	0x3fe4e9c8	1.7883844
178	0x3e2a2a25	0.1661764
179	0x3dfc1466	0.12308578
180	0xbddb488e	-0.10707198
181	0x3e9c61fe	0.30543512
182	0xbf794aba	-0.9737965
183	0x3f5b3718	0.8563094
184	0x3ee117a9	0.43963364
185	0x3f3da592	0.74080765
186	0x3f3855fe	0.72006214
187	0x3f1bc004	0.6083987
188	0xbfee2ba4	-1.8607068
189	0xbdbdbc69	-0.09264452
190	0x3f2a61c4	0.6655543
191	0xbfb9301a	-1.4467804
192	0xbf3a2d2e	-0.7272519
193	0x3fb46432	1.4093077
194	0x3f8522a4	1.0401196
195	0xbfa1cfb4	-1.2641511
196	0xbfc5b2e8	-1.5445223
197	0x3f533df8	0.8251643
198	0x3f2c7f3b	0.6738164
199	0xbf5f66d5	-0.87266284
200	0xbef57f3f	-0.47948644
201	0x3ef025ff	0.4690399
202	0xbcb43299	-0.021996783
203	0xbe9683a3	-0.29397306
204	0x3f29c241	0.6631203
205	0xbfe52067	-1.7900513
206	0xbd29c013	-0.041442942
207	0x3ded95d7	0.11600845
208	0xbfd59e22	-1.6688883
209	0xbfd57389	-1.6675884
210	0x3e1921dc	0.14954323
211	0x3ca9aedd	0.020713264
212	0x3f0fe916	0.56215036
213	0xc01dde2d	-2.4666855
214	0x400b0fa4	2.1728296
215	0x3f004feb	0.50121945
216	0xbf59b497	-0.85041183
217	0xbf211757	-0.6292624
218	0x3f4d798a	0.8026358
219	0x4008cbe8	2.1374454
220	0x3e98aafe	0.29817957
221	0xbea3ad78	-0.31968284
222	0x3f32610e	0.69679344
223	0x3f8683c8	1.0508966
224	0xbf929987	-1.1453103
225	0x3f20a24b	0.6274764
226	0xbe8ead38	-0.2786653
227	0x3f5d36ac	0.8641155
228	0xbfd36245	-1.6514364
229	0xbe90a313	-0.28249416
230	0xbf2f7288	-0.68534136
231	0x3f1a01db	0.6015908
232	0x3f1d4775	0.6143716
233	0x3ecd015f	0.4004011
234	0xbfe08527	-1.7540635
235	0x3f18eb33	0.59733886
236	0xbfa3ab53	-1.2786659
237	0x3e70bdc7	0.23509894
238	0xbf967749	-1.1755153
239	0xbf38568f	-0.7200708
240	0xbe04b665	-0.12960203
241	0xbf6cd482	-0.9251176
242	0xbf0c403d	-0.5478552
243	0x3c50e1dd	0.0127491625
244	0x3f9296f6	1.145232
245	0xbff87e67	-1.9413575
246	0x3db1ed06	0.08687787
247	0x3f08dfd2	0.5346652
248	0x3f2e770d	0.6815041
249	0x3ecea22f	0.4035811
250	0x3f7c97a3	0.9866888
251	0x3e2b9406	0.16755685
252	0x3d03fd1b	0.032223802
253	0x3fa0d031	1.2563535
254	0x3e3c5a24	0.18393761
255	0xbf352cad	-0.70771295

rnn_layer.weight_ih_l0 f4 [100, 50]
0	0xbdff18ad	-0.124558784
1	0xbd752fe9	-0.059860144
2	0xbe08f97c	-0.1337642
3	0x3d6ce0f2	0.057831712
4	0xbce59eec	-0.028029881
5	0x3d8ec05a	0.06970282
6	0xbcbd61ad	-0.023117865
7	0xbd840b92	-0.06447519
8	0xbc4d2993	-0.012522119
9	0x3e2ae2cc	0.16688079
10	0x3d0bbd4f	0.034116086
11	0xbdc2912e	-0.09500347
12	0xbd9e2bfa	-0.077232316
13	0xbc4dea6d	-0.0125680985
14	0xbd4193b7	-0.047260012
15	0x3bb2fd70	0.005462341
16	0x3dd3bcbe	0.10338734
17	0x3db7a44b	0.08966883
18	0x3e130f87	0.14361392
19	0x3dc9d3fa	0.098548844
20	0xbdd647cf	-0.10462915
21	0x3e086578	0.13319957
22	0xbda67fac	-0.0812982
23	0xbd1fe13d	-0.039033163
24	0xbdd25d37	-0.102716856
25	0x3d118e8b	0.03553633
26	0x3d9f7efe	0.07787894
27	0x3ce39bde	0.027784284
28	0xbe4c66e4	-0.19961125
29	0xbe45db91	-0.19322039
30	0x3d99b613	0.07505431
31	0xbd29354f	-0.041310605
32	0x3db5bb6c	0.088736385
33	0x3e2132cd	0.15742035
34	0xbdb24e2d	-0.08706317
35	0xbc57d9fc	-0.01317453
36	0x3da6a47c	0.08136842
37	0xbc95347c	-0.018213503
38	0x3be6f43d	0.0070481584
39	0xbd00ee53	-0.031477284
40	0xbd83112c	-0.0639976
41	0x3e5c6593	0.21523122
42	0x3df533b2	0.11972751
43	0xbe44c2d7	-0.1921495
44	0x3e1b4ecd	0.15166779
45	0xbdcf69ce	-0.101276025
46	0x3b8e8dc8	0.0043503977
47	0x3b1475c5	0.0022653204
48	0xbb8a42ea	-0.0042194026
49	0x3db56b1c	0.0885832
50	0x3d104884	0.035225406
51	0x3dd15d42	0.10222866
52	0x3cac9405	0.021066675
53	0xbd9a5986	-0.075366065
54	0x3d6e181f	0.058128472
55	0xbe267a27	-0.16257535
56	0xbe08645b	-0.13319533
57	0xbdff8b74	-0.124777704
58	0xbd6810ce	-0.05665665
59	0x3b09febe	0.002105638
60	0xbd26ac55	-0.040691692
61	0xbddc1481	-0.10746098
62	0x3dd4c531	0.10389174
63	0x3e0b9fe2	0.13635209
64	0xbd80e6dc	-0.06294033
65	0xbe7b6ff4	-0.24554425
66	0xbdac76f7	-0.08421128
67	0x3e24f3a1	0.16108562
68	0xbdbed686	-0.09318261
69	0xbcb9d35d	-0.022683794
70	0x3dc15d81	0.094416626
71	0x3dcdd151	0.100496896
72	0xbdb84f51	-0.089995034
73	0xbe1d85cc	-0.1538307
74	0x3d5ee048	0.05441311
75	0xbcb71b2b	-0.022351822
76	0x3d93dcc6	0.072198436
77	0xbd7ada3f	-0.061243292
78	0xbdec8ba1	-0.115500696
79	0xbce95906	-0.028484832
80	0xbe09f109	-0.13470854
81	0x3cb2d090	0.021827966
82	0xbd220833	-0.0395586
83	0x3ca08c6b	0.019598207
84	0xbd2de54b	-0.042455
85	0xbdde6f56	-0.108610794
86	0x3cda7797	0.026668353
87	0x3d8c7612	0.068584576
88	0xbb929a03	-0.004473926
89	0x3e7c14e2	0.24617341
90	0x3da53dc3	0.08068421
91	0x3df0d90a	0.11760147
92	0x3e3fbe4c	0.18724936
93	0xbe265384	-0.16242796
94	0xbdb85b3b	-0.09001776
95	0x3a5fa0b5	0.0008530722
96	0xbd851aa7	-0.06499224
97	0xbcc1128e	-0.023568418
98	0x3db263ae	0.08710419
99	0xba319b99	-0.00067752
100	0x3e3b6076	0.18298516
101	0xbd962bc5	-0.07332567
102	0x3e0e9cc9	0.13926996
103	0xbdd40788	-0.10352999
104	0xbd7e29bc	-0.06205152
105	0xbe4404d7	-0.19142471
106	0x3c8553c2	0.01627529
107	0xbe442df4	-0.19158155
108	0xbdf6238b	-0.12018498
109	0xbe153bc2	-0.14573577
110	0xbde752a8	-0.11295062
111	0x3dc9e363	0.09857824
112	0x3e418621	0.18898822
113	0x3d9f3777	0.07774251
114	0xbe245939	-0.1604966
115	0xbc22939e	-0.00992289
116	0xbdfa42f0	-0.122197986
117	0x3e005d5c	0.12535614
118	0x3cf07920	0.029354632
119	0xbe3f1692	-0.18660954
120	0x3e8d1e0b	0.27561983
121	0xbd428c14	-0.04749687
122	0x3e16d21f	0.14728592
123	0xbdea6cf8	-0.114465654
124	0xbd717c7b	-0.058956604
125	0xbcd637a9	-0.026149588
126	0xbe2ba464	-0.16761929
127	0xbdf26e82	-0.11837484
128	0x3e95d085	0.2926065
129	0xbd7647e6	-0.06012716
130	0x3db9f148	0.09079224
131	0x3e0dff1a	0.13866845
132	0xbe14d1dd	-0.14533181
133	0xbe1f69fd	-0.15567775
134	0xbdf45088	-0.119294226
135	0xbc6e1ce2	-0.014533253
136	0xbdf911b7	-0.12161582
137	0xbcd9f2c6	-0.026605021
138	0x3e133078	0.14373958
139	0x3e171288	0.14753163
140	0x3e5de78b	0.21670358
141	0x3c400eb6	0.011722257
142	0xbddb8224	-0.10718182
143	0xbc98b7fc	-0.018642418
144	0xbd462a78	-0.048380345
145	0x3d6ff5bf	0.05858397
146	0xbdb0efb8	-0.08639473
147	0x3d6ecf2e	0.05830305
148	0x3e2757be	0.16342065
149	0xbde1ad88	-0.110194266
150	0xbe334c0d	-0.1750948
151	0xbe27869d	-0.16359945
152	0x3e1b0f56	0.15142569
153	0xbd9f38fc	-0.07774541
154	0x3d9abdf9	0.07555766
155	0xbc9e9284	-0.019356973
156	0x3dbeeab6	0.09322111
157	0xbe1151ef	-0.14191411
158	0x3d2a9d1b	0.041653734
159	0xbcf62d06	-0.030050766
160	0xbc092394	-0.008370299
161	0xbd896787	-0.067091994
162	0x3deb8399	0.1149971
163	0x3e1d1304	0.15339285
164	0xbe20ab2c	-0.15690297
165	0xbdd57ef7	-0.10424607
166	0xbdb19f88	-0.08673006
167	0xbd52b819	-0.0514451
168	0x3e864fc4	0.2623273
169	0x3cefb716	0.029262107
170	0x3e53862f	0.20656656
171	0xbde4d4be	-0.1117339
172	0xbd49ea73	-0.049295854
173	0x3c9bfdd2	0.01904193
174	0x3d194501	0.037419323
175	0x3a4c4d31	0.0007793485
176	0xbe2f6b98	-0.17130888
177	0x3da32341	0.079657085
178	0xbdfcd810	-0.12345898
179	0x3d4d8868	0.050178915
180	0x3da19529	0.07889778
181	0xbc0657d3	-0.00819965
182	0xbcb5785e	-0.022152122
183	0x3b9d049c	0.0047918092
184	0x3de652dc	0.11246273
185	0x3daeacda	0.085290626
186	0xbcdb6049	-0.02677931
187	0xbc916b0e	-0.017751243
188	0xbd8ab9ab	-0.067736946
189	0x3d9d7138	0.076876104
190	0x3d940d0c	0.07229051
191	0xba69f5b2	-0.0008924856
192	0x3d3d0265	0.04614486
193	0x3e014ff3	0.12628154
194	0x3d31cbe0	0.04340732
195	0x3d841217	0.06448763
196	0xbe224bc8	-0.15849221
197	0xbdfd1eb7	-0.12359374
198	0xbb7fc679	-0.003902821
199	0x3d4599ca	0.048242368
200	0xbdbe0102	-0.09277536
201	0xbbf223cf	-0.0073895226
202	0x3d364031	0.04449481
203	0x3e099aca	0.13437954
204	0x3b9cb142	0.004781873
205	0xbb0fd0f0	-0.0021944605
206	0xbc7f8df2	-0.015597807
207	0x3e321c7e	0.17393681
208	0xbd7b1eef	-0.061308797
209	0x3d2c271f	0.042029496
210	0x3ccc673b	0.024951568
211	0x3b641f2f	0.0034808626
212	0x3dced5ec	0.10099396
213	0xbd0c0242	-0.03418184
214	0xbdac236b	-0.08405193
215	0x3c9e1cba	0.019300807
216	0xbdb883a6	-0.09009485
217	0x3e4981ff	0.19678496
218	0xbdeada57	-0.11467426
219	0xbd76beb0	-0.060240448
220	0x3d36d673	0.04463811
221	0xbce6f416	-0.028192561
222	0xbdcaaa21	-0.09895731
223	0xbd24f51c	-0.040272817
224	0x3cbd4548	0.023104325
225	0x3db26b95	0.08711926
226	0xbd05d264	-0.032671347
227	0xbda3d888	-0.080002844
228	0x3a7476ff	0.0009325593
229	0x3d7a2c13	0.06107719
230	0x3d85df71	0.06536759
231	0xbe10f801	-0.14157106
232	0x3d545702	0.05184079
233	0xbdee390d	-0.11631975
234	0x3e0ff4b8	0.14058197
235	0x3da8cdd5	0.08242384
236	0x3d432992	0.047647066
237	0xbd3a21f2	-0.04544253
238	0x3da09665	0.078411855
239	0x3e3db8fd	0.18527599
240	0x3d4c7ad6	0.049921833
241	0x3da0f23d	0.07858703
242	0xbe726b3d	-0.2367372
243	0xbc05756c	-0.008145671
244	0x3d467e24	0.04846014
245	0xbafaa47f	-0.001912251
246	0x3d0da10c	0.034577414
247	0xbb8065ce	-0.003918386
248	0x3c240ba2	0.010012539
249	0x3e236a23	0.15958457
250	0xbe59ed7d	-0.21282001
251	0xbccc7a9f	-0.024960814
252	0x3e061a91	0.13096072
253	0x3d2cd2f7	0.04219338
254	0x3e103354	0.1408208
255	0xbc494327	-0.012284077

rnn_layer.weight_hh_l0 f4 [100, 100]
0	0x3dc5ddf9	0.096614785
1	0xbd2f285b	-0.042763095
2	0x3cbcb975	0.023037652
3	0x3d78b880	0.060722828
4	0xbdb534e8	-0.08847982
5	0xbe0c4858	-0.13699472
6	0xbd471609	-0.048605
7	0x3ba69277	0.005083378
8	0x3db92b50	0.09041464
9	0x3cfd55ed	0.030924762
10	0xbd50a8a7	-0.05094209
11	0x3dd4d0eb	0.103914104
12	0xbb9135cf	-0.0044314633
13	0xbd2541ee	-0.04034608
14	0x3d0ddacd	0.034632493
15	0xbda7884d	-0.08180294
16	0xbd7679f8	-0.060174912
17	0xbcaafbbb	-0.020871988
18	0xbbca1377	-0.006166871
19	0xbc5aed40	-0.013362229
20	0x3cdd3e66	0.027007293
21	0x3d80290f	0.06257831
22	0xbd5676b0	-0.052359283
23	0xbcf29baa	-0.029615242
24	0xbd755026	-0.05989089
25	0xbce11860	-0.027477443
26	0xbd3fb724	-0.046805516
27	0xbe0dd4c6	-0.13850698
28	0xbdcea9c9	-0.10090978
29	0x3d5cfa4a	0.05394963
30	0xbd8b291b	-0.067949496
31	0x3c9968fb	0.018726816
32	0x3ddfbe4e	0.109249696
33	0xbe077c2d	-0.13230963
34	0xbd1a90b1	-0.037735645
35	0x3bf5fa35	0.0075066336
36	0x3e0af7d2	0.13571098
37	0x3d91890c	0.07106218
38	0xbde005cb	-0.10938605
39	0x3ca5e7a5	0.020252058
40	0xbc164b78	-0.009173267
41	0xbdd0c6cc	-0.101941675
42	0xbd1aeb4a	-0.037822045
43	0x3d29c61f	0.04144871
44	0xbc6bfe1a	-0.014403844
45	0x3de5c5f0	0.11219394
46	0x3da9b3ff	0.08286285
47	0xbbb97a68	-0.005660344
48	0x3d9ad7fb	0.07560726
49	0x3b9c8dc4	0.004777642
50	0xbe0bb932	-0.13644865
51	0x3c9ddf69	0.01927157
52	0x3db32198	0.08746642
53	0x3e43a74f	0.19106792
54	0x3ce29a97	0.027661605
55	0x3d0c1b01	0.03420544
56	0x3c45c63c	0.012071189
57	0x3c308d4c	0.010775875
58	0xbdf097a0	-0.1174767
59	0xbdf59073	-0.11990442
60	0xbcce56a2	-0.025187794
61	0xbcf74e34	-0.030188657
62	0x3d1ff8f1	0.03905577
63	0xbdbb789c	-0.09153864
64	0xbe34f784	-0.17672545
65	0x3d17dfe8	0.037078768
66	0x3de0c3b9	0.10974831
67	0x3d184eb3	0.03718443
68	0xbe2b7e04	-0.1674729
69	0x3e314c7e	0.17314336
70	0x3cf56835	0.029956916
71	0x3de8d77c	0.113692254
72	0x3dcc732a	0.09982903
73	0xbdc1341d	-0.09433768
74	0xbd96c3d8	-0.07361573
75	0x3dd543d8	0.10413331
76	0x3dbd9ea6	0.092587754
77	0xbc092685	-0.008371
78	0x3c222be2	0.009898158
79	0xbd1a2f6a	-0.037642874
80	0x3bf4591e	0.0074569127
81	0x3dfddc35	0.12395517
82	0xbdf9bd2e	-0.12194286
83	0x3dfe4566	0.124155805
84	0xbd6520a4	-0.05593933
85	0xbd87a22b	-0.06622728
86	0x3d43894e	0.047738366
87	0x3dc61c8e	0.09673415
88	0xbc20cf26	-0.009815013
89	0x3d50d5a0	0.05098498
90	0x3d8d7d0e	0.06908618
91	0xbd995124	-0.074861795
92	0xbc33fbed	-0.010985357
93	0xbdd46295	-0.103703655
94	0x3d4d1733	0.050070953
95	0x3d0d6ce7	0.034527685
96	0xbd96d7d8	-0.07365388
97	0xbe0cd946	-0.13754758
98	0x3e1c36a7	0.15255223
99	0xbdb2177e	-0.08695887
100	0xbb667479	-0.0035164638
101	0x3e0e3baf	0.13889955
102	0xbb01d4f0	-0.0019810759
103	0xbcb54350	-0.022126824
104	0x3cc98bfe	0.024602886
105	0xbd9c071f	-0.07618546
106	0xbd9ae3e3	-0.07562997
107	0x3dc617a7	0.0967248
108	0xbd226d3c	-0.039654955
109	0x3e0600e4	0.13086277
110	0xbcd18286	-0.025574934
111	0xbc54d2e2	-0.0129897315
112	0x3dcc3f10	0.09972966
113	0x3cbb8021	0.022888245
114	0xbca40152	-0.02002016
115	0xbdeb32aa	-0.11484273
116	0x3e06f775	0.13180335
117	0x3d9e9bf9	0.07744593
118	0xbe20cc85	-0.15703018
119	0x3caf1d37	0.021376235
120	0xbd8b6546	-0.06806426
121	0x3cad179d	0.021129424
122	0xbd5cfef6	-0.053954087
123	0xbde03f0b	-0.109495245
124	0xbd889108	-0.066682875
125	0xbc65053f	-0.013978302
126	0x3d270b52	0.04078228
127	0x3d0512c0	0.032488585
128	0xbde5df1f	-0.112241976
129	0x3c53c46d	0.0129252495
130	0xbb4ef0a0	-0.003157653
131	0xbdee2bdd	-0.1162946
132	0x3cfe0a76	0.031010848
133	0x3cd7df00	0.026351452
134	0xbd4b9b7c	-0.04970883
135	0xbbc65b0e	-0.006053335
136	0x3c817b58	0.015805885
137	0x3db4d678	0.08829969
138	0x3d02e19a	0.03195343
139	0x3d84d770	0.06486404
140	0x3da415f0	0.08011997
141	0xbdd4446f	-0.10364615
142	0xbd8ce237	-0.068790846
143	0x3e0a3963	0.13498454
144	0x3c0fd20a	0.008778105
145	0xbd04a79f	-0.03238642
146	0xbd934f5f	-0.07192873
147	0xba94f0d9	-0.0011363282
148	0xbdb9b3f0	-0.090675235
149	0x3c768ee0	0.0150487125
150	0xbd265836	-0.04061147
151	0xbd899724	-0.06718281
152	0xb9bcc68f	-0.00036006092
153	0xbd282911	-0.04105479
154	0xbbddc5b5	-0.0067679533
155	0x3da4c40c	0.080452055
156	0x3cfdbeed	0.03097483
157	0x3d78c3bf	0.060733553
158	0x3d2e6713	0.042578768
159	0x3db6d3db	0.08927127
160	0x3d6fb6df	0.05852401
161	0x3ab009da	0.001343067
162	0x3c97b77d	0.018520111
163	0xbd1a7b85	-0.037715454
164	0xbca8b178	-0.020592436
165	0x3d933e6e	0.07189642
166	0xbdf38089	-0.118897505
167	0x3d2f343c	0.042774424
168	0x3db9e3ce	0.090766534
169	0xbdb2c091	-0.087281354
170	0x3d9b1b18	0.07573527
171	0xbb72938b	-0.0037014212
172	0xbe087b8f	-0.13328384
173	0xbc044c25	-0.008074795
174	0xbdfb368e	-0.12266265
175	0xbe22f421	-0.1591344
176	0xbd435549	-0.047688756
177	0xbdf3403e	-0.118774876
178	0xbc691434	-0.014226008
179	0x3da7b910	0.08189595
180	0xbdd5067c	-0.104016274
181	0xbd841eb6	-0.0645117
182	0xbdb036b1	-0.086041816
183	0x3d6b5d9a	0.057462312
184	0x3dde96b4	0.10868588
185	0xbd81fa4d	-0.06346569
186	0x3de65e4a	0.11248453
187	0x3cc0676d	0.023486817
188	0x3e5a422c	0.21314305
189	0xbced34d6	-0.028955858
190	0xbb4e05e6	-0.0031436621
191	0xbd6fbc7e	-0.05852937
192	0xbc46b946	-0.012129134
193	0xbe55a95a	-0.20865384
194	0x3cd8d0af	0.026466696
195	0x3c71df68	0.014762737
196	0xbb4ae6d2	-0.0030960334
197	0x3d247f86	0.04016068
198	0x3db3635f	0.08759188
199	0xbcab9993	-0.020947253
200	0xbd2fc3ea	-0.042911448
201	0x3db80f58	0.089873016
202	0x3dd3e8a3	0.10347106
203	0xbdb60d72	-0.08889283
204	0xbdd17d2d	-0.102289535
205	0xbdaef960	-0.08543658
206	0xbd4a2a7a	-0.049356915
207	0x3d82a44e	0.06378995
208	0x3d80796e	0.06273161
209	0x3dedadf4	0.116054446
210	0xbc683f40	-0.014175236
211	0xbd98b299	-0.0745594
212	0x3d7317e1	0.059348945
213	0xbd516cef	-0.051129278
214	0x3ca32b09	0.019917982
215	0x3c80b2e9	0.015710311
216	0x3da52d09	0.080652304
217	0xbda238c3	-0.07920983
218	0x3d13e8f9	0.036110852
219	0xbd589d1d	-0.05288421
220	0xbddc2211	-0.10748685
221	0x3d1c9110	0.03822428
222	0x3dd33ab8	0.10313934
223	0xbe475c6f	-0.19468854
224	0xbd938078	-0.07202238
225	0x3ccbef23	0.024894303
226	0xbe090d06	-0.13383874
227	0x3d0087e7	0.031379607
228	0x3dc8849d	0.09790919
229	0xbd2de74d	-0.042456914
230	0xbde1a640	-0.11018038
231	0x3d51d24d	0.05122595
232	0x3c0a6644	0.008447234
233	0x3e09e310	0.13465524
234	0xbc6b39d7	-0.014357052
235	0x3d375242	0.04475618
236	0x3e1d6c46	0.15373334
237	0xbd41e2fc	-0.04733561
238	0x3d96fd28	0.073725045
239	0x3db644a7	0.08899813
240	0x3dca82a9	0.09888203
241	0x3ccea27d	0.025223965
242	0x3cb919df	0.022595344
243	0xbd1a5113	-0.037674975
244	0x3e03e982	0.12882045
245	0x3d42ceb4	0.04756041
246	0x3dcae61d	0.09907172
247	0xbbf13141	-0.007360608
248	0xbd99e288	-0.075139105
249	0xbdfb6fda	-0.12277193
250	0x3d3c17d9	0.04592118
251	0xbd8399ea	-0.06425841
252	0x3d8cfc81	0.06884099
253	0xbd92a007	-0.07159429
254	0x3daf6a3f	0.08565187
255	0x3c79c21d	0.015244034

rnn_layer.bias_ih_l0 f4 [100]
0	0xbe492c30	-0.19645762
1	0xbe376636	-0.17910084
2	0x3d729c62	0.05923117
3	0xbccdf41b	-0.025140813
4	0xbe639c27	-0.22227536
5	0x3c315814	0.010824222
6	0xbdb83832	-0.089950934
7	0xbcef4efc	-0.029212467
8	0xbb7bd132	-0.003842425
9	0xbd23d621	-0.03999913
10	0xbe0f4790	-0.13992143
11	0xbd4323d4	-0.04764159
12	0x3e4d8857	0.20071541
13	0x3d00d5e4	0.031453982
14	0xbe44066e	-0.19143078
15	0x3e182087	0.14856158
16	0xbdd24127	-0.10266333
17	0xbc3cc234	-0.011520911
18	0x3e97d0d5	0.29651514
19	0xbdd6a6f0	-0.104810596
20	0xbde71242	-0.11282779
21	0xbe2d6f79	-0.16937055
22	0x3d7ee824	0.062233105
23	0xbe899e7a	-0.2687872
24	0xbd5fbf7f	-0.054625984
25	0x3e16b110	0.14715981
26	0xbe8486a1	-0.25883964
27	0xbdc951ce	-0.09830056
28	0xbd5d8f35	-0.05409165
29	0x3e14dbf6	0.14537033
30	0x3c680d1e	0.014163284
31	0xbda1725e	-0.07883142
32	0xbe3bea4a	-0.18351093
33	0x3b740fa9	0.003724078
34	0xbda8b697	-0.08237951
35	0x3ddeb5ef	0.10874545
36	0x3e1be60c	0.15224475
37	0x3d25900e	0.040420584
38	0xbd52f099	-0.051498983
39	0x3e5da4b7	0.21644865
40	0xbc01cf71	-0.007922993
41	0xbe4d23d5	-0.200332
42	0x3d828c76	0.06374447
43	0xbe821d37	-0.25412914
44	0x3c75b319	0.0149963135
45	0x3e3569f9	0.17716207
46	0x3e777987	0.24167453
47	0xbe32be65	-0.17455442
48	0x3d8ae775	0.06782428
49	0xbd1af9dc	-0.03783594
50	0xbdb41096	-0.08792226
51	0x3eabe3e7	0.33572313
52	0x3da77ee2	0.08178498
53	0xbd6e3537	-0.05815622
54	0xbc1fab8d	-0.009745491
55	0x3e618b44	0.22025782
56	0xbcbf3ab5	-0.023343423
57	0xbe21bf47	-0.15795623
58	0xbe32cb85	-0.17460449
59	0x3c2a8e73	0.010409939
60	0x3e7b56ab	0.2454478
61	0xbc91e020	-0.017807066
62	0xbe817181	-0.2528191
63	0x3cb71b11	0.022351773
64	0x3dddae79	0.10824294
65	0xbe51db51	-0.20493819
66	0x3e8ad22a	0.27113467
67	0x3ea73b32	0.3266235
68	0xbcab974d	-0.02094617
69	0x3e0f0f81	0.13970758
70	0x3e2721ef	0.16321538
71	0xbd3eb910	-0.046563208
72	0x3e8727a1	0.26397422
73	0xbd8142aa	-0.06311543
74	0x3e547647	0.20748244
75	0x3e695d97	0.22789608
76	0x3df50a89	0.119649
77	0xba1bd556	-0.00059445703
78	0x3e95c82c	0.29254282
79	0xbb05ebd1	-0.0020434747
80	0xbe4cce05	-0.20000465
81	0x3c17213e	0.009224234
82	0xbe896429	-0.2683423
83	0x3eae2286	0.34010714
84	0xbdcd3182	-0.100192085
85	0x3dd1a487	0.10236459
86	0x3e069fa3	0.13146834
87	0xbdb1a3de	-0.08673833
88	0xbdb575b9	-0.088603444
89	0x3e47226a	0.19446722
90	0xbd78eb02	-0.060770996
91	0x3c217d19	0.009856486
92	0x3e043bde	0.12913463
93	0xbc91783c	-0.017757528
94	0x3ba38eb9	0.004991379
95	0xbd84ec2e	-0.0649036
96	0xbd6deef1	-0.0580892
97	0xbddf0d31	-0.10891188
98	0xbd5890cb	-0.05287246
99	0x3d9bd541	0.07609034

rnn_layer.bias_hh_l0 f4 [100]
0	0xbe47907f	-0.19488715
1	0xbe200bf1	-0.15629555
2	0x3dc96a6e	0.09834753
3	0xbd7c17b4	-0.061546043
4	0xbdf4d1c5	-0.11954073
5	0x3dbe4df7	0.09292214
6	0xbdf39ab6	-0.11894743
7	0xbc9b6539	-0.018969165
8	0x3e125f38	0.14294136
9	0x3c92fab6	0.017941814
10	0xbcf1f858	-0.029537365
11	0xbd0be769	-0.034156237
12	0x3d25141d	0.040302385
13	0x3e2da035	0.16955645
14	0xbd90bfda	-0.07067843
15	0x3e28fc9e	0.16502616
16	0xbe38ff9e	-0.1806626
17	0x3d794704	0.06085874
18	0x3e933276	0.28749436
19	0xbe2abc10	-0.16673303
20	0xbe564349	-0.20924105
21	0xbe813bad	-0.25240842
22	0xbce08141	-0.027405383
23	0xbe14f288	-0.14545643
24	0x3d9e9fa1	0.077452905
25	0x3dcf0b80	0.10109615
26	0xbe79feb0	-0.24413562
27	0x3d9f1a06	0.077686355
28	0xbd0f5a9a	-0.034998514
29	0x3d8a6e44	0.06759313
30	0x3d39b901	0.04534245
31	0x3cf3b86e	0.029751029
32	0xbe033349	-0.12812532
33	0xbc5f50b2	-0.013630079
34	0xbd1a04dd	-0.037602294
35	0x3e1c8d76	0.15288338
36	0x3dc6bb56	0.097037
37	0xbe02def4	-0.12780362
38	0xbbc8ecdf	-0.006131753
39	0x3e0ded1c	0.13859981
40	0xbdc1beec	-0.094602436
41	0xbea23836	-0.3168351
42	0x3d4cb30c	0.04997544
43	0xbe10aa0b	-0.14127366
44	0xbde4ef10	-0.1117841
45	0x3e1fc731	0.15603329
46	0x3dfb154e	0.12259923
47	0xbd79ba2e	-0.06096857
48	0x3e1776d0	0.14791417
49	0xbe50c274	-0.20386678
50	0xbe1bdcc9	-0.15220942
51	0x3e9d3a0f	0.30708358
52	0x3d81a467	0.063301854
53	0xbd09f5bb	-0.033681612
54	0xbd1299b7	-0.035791125
55	0x3e1a4e55	0.15068944
56	0x3c99a722	0.018756453
57	0xbe14198f	-0.14462875
58	0xbe037491	-0.12837435
59	0x3d6432e1	0.055712584
60	0x3e9c539c	0.3053254
61	0xbda15795	-0.07878033
62	0xbe702236	-0.2345055
63	0x3d9c9d8d	0.07647238
64	0x3e11faab	0.14255778
65	0xbe204b27	-0.15653668
66	0x3e84574e	0.25847858
67	0x3e8bc3cd	0.27297822
68	0xbd2cdf16	-0.04220494
69	0x3e34f309	0.17670836
70	0x3d81e15a	0.063418105
71	0x3dd1e9f4	0.10249701
72	0x3dd8a9a0	0.105792284
73	0x3cbf9a59	0.023389028
74	0x3eb7a664	0.35869133
75	0x3e6e8a2a	0.23294893
76	0x3e23814d	0.15967293
77	0xbe0d9762	-0.13827279
78	0x3eaf8ab3	0.34285507
79	0xbd638a03	-0.05555154
80	0xbe49da4b	-0.19712178
81	0x3dc021d4	0.09381452
82	0xbe6b4b45	-0.22977932
83	0x3ead6e67	0.33873293
84	0xbe04b851	-0.12960936
85	0x3ceec800	0.029148102
86	0x3e418b85	0.18900879
87	0x3d85d0cb	0.06533965
88	0x3d24265c	0.040075645
89	0x3ea111c2	0.3145886
90	0xbd09816c	-0.033570692
91	0x3d7e44eb	0.062077444
92	0x3dbe6a78	0.09297651
93	0xbde27cfe	-0.110589966
94	0x39d04984	0.00039727625
95	0xbd6c3dfd	-0.057676304
96	0x3d5a445b	0.053287845
97	0xbe0bab96	-0.13639674
98	0xbda606f4	-0.08106795
99	0x3e2029a9	0.15640892

classify.weight f4 [2, 100]
0	0xbdd43f32	-0.10363616
1	0x3c0dc98a	0.008654008
2	0x3e72b9cf	0.23703693
3	0x3db414a2	0.08792998
4	0xbd952519	-0.072824664
5	0xbd8c92c6	-0.06863932
6	0x3aee211d	0.0018167828
7	0x3ce9f463	0.028558915
8	0xbd566128	-0.05233875
9	0x3dfd4fdf	0.1236875
10	0xbc213811	-0.009840027
11	0xbd9fffb8	-0.07812446
12	0x3d9d809d	0.07690547
13	0x3dc91499	0.09818382
14	0xbdb4cf07	-0.0882855
15	0xbe24fcd3	-0.1611207
16	0xbdfe43b2	-0.124152556
17	0x3c86673a	0.016406644
18	0x3e096f04	0.13421255
19	0x3e39716a	0.1810967
20	0xbcf3232a	-0.029679853
21	0xbde1a230	-0.11017263
22	0xbd77eb82	-0.060527332
23	0xbe279061	-0.1636367
24	0x3e002393	0.1251357
25	0xbe794103	-0.24341206
26	0xbe2b4f54	-0.1672948
27	0xbde887f6	-0.113540575
28	0xbe02a05a	-0.12756482
29	0xbd37074f	-0.044684704
30	0xbdc5f960	-0.09666705
31	0x3e73529f	0.23761986
32	0xbc9a14f0	-0.018808812
33	0xbc6f9909	-0.014623889
34	0xbe0ba510	-0.13637185
35	0x3e3d8ed7	0.1851152
36	0x3d2dcbe4	0.042430773
37	0xbe0c6697	-0.1371101
38	0x3bf07866	0.0073385714
39	0x3e5ccafe	0.2156181
40	0xbe0fcb0e	-0.14042303
41	0xbe05a07c	-0.13049501
42	0xbdefe809	-0.11714179
43	0xbe6353a4	-0.22199875
44	0x3e3fb4e8	0.18721354
45	0x3e2ff6f3	0.17184047
46	0x3b533889	0.0032229743
47	0x3d67c744	0.05658652
48	0xbd2d3d9e	-0.04229509
49	0xbdd9f5c4	-0.10642579
50	0x3cb65704	0.02225829
51	0x3ddade57	0.10686939
52	0xbe1dbad2	-0.15403298
53	0xbe0a46a3	-0.13503508
54	0xbafde6d9	-0.0019371166
55	0xbdd60ca2	-0.10451628
56	0xbdd128f5	-0.1021289
57	0xbe5724cf	-0.21010135
58	0xbd81c33e	-0.063360676
59	0xbdde8d54	-0.108668
60	0x3dcb8b15	0.09938637
61	0xbe6052e8	-0.21906626
62	0xbe0240d9	-0.1272005
63	0x3bc4ca1c	0.0060055386
64	0xbd505e9b	-0.050871473
65	0x3e1c3b5c	0.15257019
66	0x3bf8e986	0.0075961975
67	0x3e249428	0.16072142
68	0x3e145060	0.14483786
69	0x3e2057d3	0.15658502
70	0xbdb073a0	-0.08615804
71	0xbe185b6e	-0.14878628
72	0x3e3f4ad2	0.18680885
73	0xbd1418d3	-0.036156487
74	0x3dd45727	0.103681855
75	0x3dca23d8	0.09870118
76	0x3dc7a893	0.0974895
77	0xbb87abbb	-0.004140345
78	0x3dcee3c9	0.1010204
79	0xbdee19a9	-0.11625988
80	0xbe56e867	-0.20987092
81	0xbd1e906a	-0.038711943
82	0xbe89e43a	-0.26931936
83	0x3ddc692c	0.107622474
84	0xbe0ba489	-0.13636984
85	0xbdfd7c81	-0.12377263
86	0x3db0edc5	0.08639101
87	0x3e22e657	0.1590818
88	0xbdcf84b3	-0.10132732
89	0x3e153c4c	0.14573783
90	0x3c3dc441	0.011582435
91	0x3dacd34b	0.084387384
92	0xbd0af896	-0.033928476
93	0x3d37ae16	0.044843756
94	0xbe001871	-0.12509324
95	0xbce336c6	-0.027736079
96	0xbe61f922	-0.22067693
97	0xbe43b249	-0.19110979
98	0x3e30f0a0	0.17279291
99	0x3da45a9f	0.08025097
100	0x3d8ab1e6	0.06772213
101	0x3dd9f0ff	0.106416695
102	0xbe05fe73	-0.13085346
103	0xbdcf16f0	-0.10111797
104	0xbdcaf107	-0.099092536
105	0xbd2e2458	-0.04251513
106	0xbe186eee	-0.14886066
107	0xbdca92c4	-0.098912746
108	0xbd753c4a	-0.05987195
109	0xbd846244	-0.06464055
110	0x3dc9f6a7	0.09861498
111	0xbd8ada8d	-0.067799665
112	0x3dbcd22d	0.09219775
113	0xbdc810e1	-0.097688444
114	0x3e60b8d4	0.21945506
115	0x3da66cd6	0.081262276
116	0x3e41cad5	0.1892503
117	0xbd9dded3	-0.07708516
118	0xbdc502b4	-0.09619656
119	0xbdc34709	-0.09535033
120	0xbb913ccf	-0.004432298
121	0x3dfbb305	0.12290005
122	0x3e550fe8	0.20806849
123	0x3e13c3dd	0.14430185
124	0xbdc71558	-0.09720868
125	0x3e4403d8	0.19142091
126	0x3b85a236	0.004078175
127	0x3debb458	0.11509007
128	0x3e47d807	0.19516002
129	0xbc37b929	-0.011213579
130	0x3e4303d6	0.19044432
131	0xbe1f3d59	-0.15550746
132	0x3c98af9f	0.01863843
133	0xbd35e7e1	-0.04441059
134	0xbc8642ba	-0.01638924
135	0xbe80548c	-0.25064504
136	0xbd8a9d97	-0.06768339
137	0x3e20f29c	0.15717548
138	0xbdd4820e	-0.103763685
139	0xbe1cf561	-0.1532798
140	0x3d539338	0.05165407
141	0x3def72de	0.11691831
142	0x3e499b59	0.19688167
143	0x3e26511b	0.16241877
144	0xbe39edcd	-0.1815712
145	0xbe3240eb	-0.17407577
146	0xbda553e3	-0.08072641
147	0x3d968892	0.073502675
148	0x3db7235f	0.089422934
149	0xbd3ddc8b	-0.046352904
150	0xbe228709	-0.15871824
151	0xbe5ca6ef	-0.21548055
152	0x3ded2a10	0.115802884
153	0xbd4e8d04	-0.05042745
154	0xbd2f2f5d	-0.04276978
155	0xbd48e8ab	-0.049050014
156	0x3dee20cd	0.1162735
157	0x3e7cf252	0.24701813
158	0xbbc58627	-0.006027955
159	0x3e041063	0.12896876
160	0xbe833938	-0.25629592
161	0x3e4fd45f	0.20295857
162	0x3d634ed0	0.055495083
163	0x3de7b7ff	0.11314391
164	0xbd0b4f01	-0.03401089
165	0xbdb95501	-0.09049416
166	0xbda02423	-0.078193925
167	0xbe47317b	-0.19452469
168	0xbe070036	-0.13183674
169	0xbdcb5f48	-0.09930283
170	0x3e3fd22e	0.18732521
171	0x3d700912	0.0586024
172	0xbe7849c4	-0.2424689
173	0xbd756519	-0.059910867
174	0xbc7bb959	-0.015364015
175	0xbe296945	-0.16544063
176	0xbd7bcc61	-0.061474208
177	0xbd24d9d9	-0.04024682
178	0xbe4195b1	-0.18904759
179	0x3e174fd0	0.1477654
180	0x3e619721	0.22030307
181	0x3c620650	0.01379545
182	0x3e07e7f2	0.13272074
183	0xbe2eec8e	-0.17082426
184	0x3d132fff	0.035934445
185	0x3e3ec928	0.18631423
186	0x3dab8fb6	0.0837702
187	0xbe242e50	-0.16033292
188	0x3c6a1835	0.014287998
189	0xbe807425	-0.2508861
190	0x3d92c3df	0.07166266
191	0xbd0c9a7e	-0.034327023
192	0xbda30737	-0.079603605
193	0xbc0308ec	-0.007997733
194	0x3d9e8061	0.0773933
195	0xbde714e5	-0.11283282
196	0x3e5c4693	0.21511297
197	0x3d12f3a5	0.03587689
198	0xbe01d289	-0.12677969
199	0xbdaac45d	-0.083382346

classify.bias f4 [2]
0	0xbda7d973	-0.08195772
1	0x3bc7dccc	0.006099319
